model-doom.pth (torch, 78242 bytes, 27 tensors)

weight f4 [8, 1, 3, 3]
000000 19 83 1b bf 03 f5 0e bf 2c 76 47 bf de 08 71 bf
       -0.60746914 -0.5584261 -0.7791469 -0.94154155
000010 a0 86 b6 3f 9e 7a 30 3f a3 d4 ab be 56 b5 d4 3d
       1.4259834 0.689371 -0.33560666 0.103861496
000020 c2 12 91 bf 5d e2 d1 3f c4 5f c8 be bf a8 e0 bf
       -1.133385 1.6397206 -0.39135563 -1.7551497
000030 a9 36 02 3f 7c 31 c2 3f f6 f5 c7 bf e9 a0 d2 3e
       0.50864655 1.5171351 -1.5621936 0.4113839
000040 21 62 9d 3f 79 71 47 bf 27 59 34 bf 8f 27 1e 3d
       1.2295572 -0.7790752 -0.70448536 0.038611945
000050 a4 d9 18 3e ad 0d 78 3f d9 02 ee bd e9 9e 50 be
       0.14926773 0.9689587 -0.11621637 -0.2037312
000060 1b 9a 84 3e bd 62 b7 be 69 42 7b bf 03 8e ab 3e
       0.25898823 -0.3581752 -0.9814821 0.33506784
000070 f6 a7 db 3e bb 16 30 bf ce 05 57 bd 28 9e 37 3e
       0.42901582 -0.68784684 -0.05249577 0.17931426
000080 18 70 6e bd 48 72 92 bf af 75 b0 be 7e 27 30 3f
       -0.05821237 -1.1441126 -0.34464785 0.6881026
000090 f5 97 e2 bf 92 5c 99 3f 62 5c a7 be fc 69 52 bf
       -1.7702624 1.1981375 -0.3268767 -0.8219297
0000a0 2b 2f e0 3f 05 3c 9a bf dc 9e 8f be 00 73 fd 3f
       1.7514395 -1.2049567 -0.28050888 1.980072
0000b0 0c 45 3e 3e 2e 00 0e bf 9a c6 50 bf f1 ca 1a 3e
       0.18581027 -0.55469024 -0.8155304 0.15116479
0000c0 63 fb 6a bf c7 fb f7 be 69 2f 3d 3f bc a0 99 be
       -0.91789836 -0.48434278 0.7390047 -0.30005443
0000d0 6f be 73 bd 45 87 ad 3f 4a 39 91 3f dc 24 81 bf
       -0.059507784 1.3556906 1.1345608 -1.0089374
0000e0 1f c4 0f bf c0 e6 85 3f a0 eb b5 bf 60 0a 17 bd
       -0.5615863 1.0461044 -1.4212532 -0.03687513
0000f0 49 e8 da 3e 9d b4 bc bf 53 77 65 3f aa c3 86 3f
       0.42755345 -1.4742619 0.896352 1.0528462
000100 e8 7b 7f 3e e4 ca 24 3e 1f 48 67 3f f4 32 3e 3f
       0.2494961 0.16093022 0.90344423 0.742965
000110 bb 08 36 3f 6b 5b 9a bf 72 eb 24 bf 8e fc b4 be
       0.7110707 -1.2059149 -0.6442176 -0.35348934

weight f4 [8]
000000 3f 24 06 40 d3 8d d2 3f 7c b9 98 3f 92 b0 9e 3f
       2.0959623 1.6449531 1.1931605 1.2397635
000010 42 0a ba 3f 84 41 a5 3f 9e 51 a9 3f 5f 3d b7 3f
       1.453438 1.2910619 1.3228033 1.4315604

bias f4 [8]
000000 a6 1d f7 be ab 57 6d bf 12 fc d3 be 2d fd 93 be
       -0.48264807 -0.92711896 -0.41403252 -0.28904095
000010 52 f7 83 be c0 be c1 bb 48 ae 8d 3e 47 d5 1c be
       -0.25774628 -0.0059126318 0.2767203 -0.15315734

running_mean f4 [8]
000000 13 3e 30 bf 4d fe 8a 3e a5 21 9d be b1 c2 5c be
       -0.6884472 0.2714714 -0.3068973 -0.21558644
000010 27 de 70 3e c1 26 8e be e4 6c a1 be 95 42 01 3f
       0.23522244 -0.27763942 -0.3152839 0.5049222

running_var f4 [8]
000000 3d a3 56 3d e6 cf 9c 3d 3e 6d 87 3c d0 b2 45 3c
       0.05240177 0.07656841 0.016531583 0.012066558
000010 90 71 3f 3d 90 29 47 3d 23 c8 0b 3d 3f af aa 3d
       0.04673916 0.04862362 0.034126412 0.08334207

weight f4 [8, 8, 3, 3]
000000 7d 0c 89 be fe fa ec 3e d6 f6 0f be 99 66 c5 be
       -0.2676734 0.46285242 -0.14059004 -0.38554838
000010 5f f0 a3 3d b3 5e f4 3d ea 66 ee bd 5b a7 99 be
       0.080048315 0.11932125 -0.11640723 -0.30010495
000020 4e 77 0d 3f cd 1a af be c5 76 be be 41 02 6a bf
       0.5526017 -0.34200135 -0.3719999 -0.9140969
000030 27 e6 e9 bd 67 e1 21 bf 1c 9e 0d bf f0 2a 2a bf
       -0.11420851 -0.6323456 -0.5531938 -0.6647177
000040 0e 8d 27 3f 2b 64 58 3e 7c 21 f1 be 13 a2 b0 be
       0.6544961 0.21131961 -0.4709586 -0.34498653
000050 0c 61 fc be bd 7a 88 be cc 3f 58 3c 0c 6f 25 be
       -0.4929279 -0.26656142 0.013198804 -0.16155642
000060 77 86 8e 3d a2 e8 b9 3d 24 34 33 3f 88 70 ce be
       0.06959241 0.09077574 0.70001435 -0.4032023
000070 1a 5c 37 bf ef ee 5b be 65 d2 3f 3e 47 75 d6 3c
       -0.7162491 -0.21477865 0.18732603 0.02617897
000080 dc dc 74 be 5d 8d 83 3e a3 bb 09 3e fc c2 75 3e
       -0.23912376 0.2569379 0.13450484 0.24000162
000090 d0 7f 03 bf ba 14 eb 3c 11 74 ca bd 97 81 e3 3d
       -0.513669 0.028696407 -0.09885419 0.11108702
0000a0 f0 ab 4f bf 69 ef 7d 3f 76 f1 23 bf 8a 25 b1 bd
       -0.8112173 0.99193436 -0.64040315 -0.08649738
0000b0 7a cf af 3d 8c 40 9b be af f3 e1 be ec 69 2e bc
       0.08584495 -0.30322683 -0.44131228 -0.010645371
0000c0 88 ad bd be ee 1e e1 be d2 2d 61 be dd df a3 3e
       -0.37046456 -0.4396891 -0.21990135 0.32006732
0000d0 67 c0 a3 bd a7 e0 76 3d e5 d4 e6 be d7 23 28 bf
       -0.07995682 0.06027284 -0.450843 -0.6567969
0000e0 79 51 92 be a3 7c e9 be c4 f8 9f bd ef f2 3b bf
       -0.28577784 -0.45602903 -0.0781112 -0.7341756
0000f0 f5 6d 8b 3e d3 26 2f 3f 89 37 fc bd f9 65 24 3f
       0.27232328 0.68418616 -0.1231528 0.642181
000100 f2 63 b1 bd 89 32 e1 3d a0 68 33 3f 0f ca 4b 3e
       -0.08661641 0.10995967 0.7008152 0.19901298
000110 51 63 f1 3d 4a 5b 6b 3e 28 18 26 be ba a0 56 bf
       0.11786521 0.22984043 -0.16220152 -0.83839
000120 02 e0 07 3f 9a c9 54 3f 48 8f 13 3e 71 df d5 3d
       0.53076184 0.8312012 0.14410126 0.10443009
000130 43 a7 9c be 85 e1 d9 3e 85 96 ae 3e af 8a b4 be
       -0.3059636 0.4255487 0.34099212 -0.35262057
000140 a3 41 42 be 38 c3 f7 be fb fd 7e 3f 90 89 df be
       -0.18970351 -0.48391128 0.99606293 -0.4365964
000150 0e 01 63 3e 4c 71 10 bf 0c f1 9d 3d 20 ff e1 bd
       0.22168371 -0.5642288 0.07711992 -0.11034989
000160 62 1d c4 3e b5 1b 00 3e 8f 44 d4 b9 f3 96 30 be
       0.38303667 0.1251057 -0.0004048687 -0.17245083
000170 7c 89 74 3e 84 0d ef 3d 4a 7b a8 be da b9 87 bd
       0.23880571 0.116725 -0.32906562 -0.06627245
000180 41 ee d3 bd 7a c5 49 3e 1f 3b 2a bf 66 5b b2 3e
       -0.10348178 0.19704238 -0.6649646 0.34835356
000190 00 e2 ba 3e 23 7e 08 3e 37 c9 8c 3e 73 b8 f0 bc
       0.3650055 0.13329367 0.27497265 -0.029384827
0001a0 c9 de 53 36 7d 0b ba bd 76 b2 a8 be 90 36 62 3c
       3.1571128e-06 -0.090842225 -0.32948655 0.013806954
0001b0 be 6c 90 3f 1c 80 f7 bd 3e 31 02 bf 57 66 0c 3f
       1.1283185 -0.12084982 -0.5085639 0.5484366
0001c0 c9 a7 e8 be a6 1e de be 21 bc e6 3e 3b d2 9d bd
       -0.4544051 -0.43382758 0.45065406 -0.07706114
0001d0 b9 d2 68 bf 04 f4 44 be 16 05 24 be 92 a8 b2 3e
       -0.9094654 -0.1923371 -0.16017565 0.34894234
0001e0 16 e8 70 be 8f 6b cd 3e e8 7e 3c 3e b5 e2 f1 3e
       -0.23526034 0.40121123 0.18407786 0.47243276
0001f0 80 36 e7 3d b3 87 42 3e 16 54 f3 be c0 e7 80 3e
       0.11289692 0.18997078 -0.4752509 0.2517681
000200 92 c5 ca 3e aa 16 12 bf ad 46 26 3e c1 cf aa 3e
       0.3960386 -0.5706583 0.16237898 0.3336163
000210 5b 21 bf 3e ed e7 ef be a2 36 10 bf 0a 9b 11 3f
       0.37330136 -0.46856633 -0.56333363 0.56877196
000220 3a fd 0c be dc e5 1d bf 28 70 a2 3d d5 21 3d 3f
       -0.13768473 -0.6167886 0.07931548 0.7387975
000230 25 94 ed bd 02 33 a8 3e 87 d9 ce 3d 5f 8f 19 3f
       -0.11600522 0.32851416 0.10100084 0.5998439
000240 b1 ee d0 be 11 dd d9 3e d2 95 85 be 42 ae 5c be
       -0.40807107 0.42551473 -0.26090866 -0.21550849
000250 ef 92 64 3e 08 2d b7 be 6c ca 08 3d 9e c0 13 bd
       0.22321676 -0.35776544 0.03339617 -0.036072366
000260 ab 96 07 3f 29 80 b9 3e a7 0b 55 3e e4 9d 63 be
       0.52964276 0.3623059 0.20805226 -0.22228199
000270 c4 f5 87 bd c0 3a 92 3f 4c 19 8e 3d 35 41 3c bf
       -0.06638673 1.1424179 0.06938419 -0.73537
000280 f9 fe 18 3f 02 8c 08 3f f5 0e f6 bc 2e c1 54 be
       0.5976406 0.53338635 -0.030036429 -0.20776817
000290 08 ab 36 bd 2b 2c 14 bd fa 95 8a be b9 dd 1b 3f
       -0.0445967 -0.036174934 -0.27067548 0.60885197
0002a0 0e 8b 0f be 9a d8 0e 3e 17 50 cf 3d 6a d9 3d be
       -0.14017889 0.13949814 0.10122698 -0.18539968
0002b0 0b 1d 81 be 91 46 07 3e 7b 9e af be 3a 82 82 3e
       -0.2521747 0.13210513 -0.34300599 0.2548998
0002c0 f1 54 9e be 99 5d 31 be 09 b1 de be 1f 7a 3f 3e
       -0.3092418 -0.17320861 -0.43494442 0.18698929
0002d0 2f 29 d5 3e ee 5f 3b be f2 53 d0 3e e2 53 e0 be
       0.41632983 -0.18298313 0.40689045 -0.43813998
0002e0 1e c5 98 3e 0d 91 01 3e 87 1d 02 bf 9e da d2 3e
       0.29837888 0.12652989 -0.50826305 0.41182417
0002f0 f3 fa 9e be b7 5b b0 3d 9d 77 3d be f9 33 43 bf
       -0.31050834 0.08611243 -0.1850266 -0.7625118
000300 26 70 be 3a ba 0f 84 bd cb 79 8f be 70 ed 21 bf
       0.0014529272 -0.06448312 -0.28022608 -0.63252926
000310 24 fc d2 3d 88 43 96 3e 34 18 a6 be 36 42 c2 be
       0.10301998 0.29348397 -0.3244034 -0.3794114
000320 b1 c4 63 3e 52 13 38 be c6 4b a7 be c4 e3 f6 3c
       0.22243 -0.1797612 -0.32674998 0.030137904
000330 f5 0f 86 3e 32 37 51 bf 91 b0 be 3e 2d 77 1b be
       0.2618405 -0.81724846 0.37244084 -0.1518218
000340 4c b0 ca be bb eb 9e be ba 88 0f 3f 70 2e 7c be
       -0.3958763 -0.31039223 0.56068003 -0.2462709
000350 41 fc 5f be bf 35 6c 3e 4b 55 88 be 74 27 83 be
       -0.21873571 0.23067378 -0.26627573 -0.25616038
000360 7d 90 21 bf 55 ac d1 bd 10 ca 29 bf 6d 65 86 bd
       -0.63111097 -0.10237948 -0.6632395 -0.06562314
000370 77 61 c0 be 1d 71 09 3f 9d b5 16 3e af 99 cb 3d
       -0.3757436 0.5368822 0.14717717 0.09941422
000380 59 52 9e 3e 8f 27 6c 3f 66 00 a4 3e d8 95 83 bd
       0.309222 0.9224786 0.32031554 -0.06425065
000390 1f 56 5d bf 1b 38 2a 3e 74 49 63 be e1 76 50 3f
       -0.86459535 0.16622965 -0.22195989 0.81431395
0003a0 19 29 fb 3e 81 e4 07 be 07 78 ef be ab ba cb bd
       0.49054793 -0.13270761 -0.4677126 -0.099477135
0003b0 cb c3 c6 bd 5b a6 53 3e 96 f3 d8 3d 8d 89 2f 3d
       -0.09705313 0.20668928 0.10593335 0.042855788
0003c0 76 fd 48 be 09 87 6e 3e 4b 18 0e bf 0b 5d 82 3d
       -0.19627938 0.232937 -0.5550582 0.06365403
0003d0 3c 31 ad bc f0 83 35 bd dc 7c 99 3c 16 94 ce 3d
       -0.02114164 -0.04431528 0.018736295 0.10086839
0003e0 59 b9 6e 3d 90 7f 82 be a1 98 97 3d 03 09 55 3e
       0.05828223 -0.25487947 0.074021585 0.20804219
0003f0 74 97 3a 3e d6 4d 08 3f 03 63 b8 bd 2e b2 ba 3d
       0.18221837 0.5324377 -0.0900326 0.09116016

weight f4 [8]
000000 57 cb cb 3f 0e f6 b4 3f 66 c6 af 3f ed 61 be 3f
       1.5921429 1.413759 1.3732421 1.4873635
000010 1b bb d5 3f 29 1f d8 3f 1d 24 c0 3f 96 2a c5 3f
       1.6697725 1.6884509 1.5011021 1.5403621

bias f4 [8]
000000 59 19 8b be 02 a9 0f bf fa 16 11 bf d1 9d 74 bf
       -0.27167776 -0.5611726 -0.56675684 -0.9555331
000010 c3 60 d7 be 90 0d 34 bc bb aa 81 3e cf 3d fe be
       -0.4206601 -0.010989562 0.2532557 -0.4965653

running_mean f4 [8]
000000 f8 74 42 c0 89 71 fc 3f d9 82 99 bf 35 10 a6 3e
       -3.0383892 1.9722148 -1.1993057 0.3243424
000010 08 64 d5 bf 1a 3d 21 c0 b1 ef 94 c0 11 32 9f 3f
       -1.6671152 -2.5193543 -4.654259 1.2437154

running_var f4 [8]
000000 21 4b 4e 41 51 48 f0 40 a1 85 ec 40 c2 ff 1a 41
       12.893342 7.5088277 7.391312 9.687441
000010 8d e0 0d 41 c2 ee 57 41 ca 5a 91 41 b4 bd 06 41
       8.867322 13.4957905 18.16933 8.421314

weight f4 [8, 8, 3, 3]
000000 7a 88 a2 be 97 62 62 bf be e5 80 3d ba 8d 2a 3e
       -0.31744748 -0.88431686 0.0629382 0.16655627
000010 3a eb c1 bd a9 e6 e3 be e7 a5 bf 3e b2 7b 37 be
       -0.09468694 -0.44511917 0.3743126 -0.1791828
000020 82 0d 86 3e 5d 7f 90 bf 0f 34 a2 bd 77 71 81 3e
       0.2618218 -1.1288868 -0.07920086 0.2528188
000030 83 99 f3 be fc d2 d0 be 3a 6f 38 bd 22 02 b6 be
       -0.47578058 -0.40785968 -0.04502795 -0.35548502
000040 54 97 ba bd b4 b3 06 3e 59 77 0a 3f e4 fa 24 3d
       -0.09110895 0.13154489 0.5408836 0.04027833
000050 51 19 c2 3e b6 e6 93 be ce 38 f1 be e6 0b d6 bc
       0.3790994 -0.28886956 -0.4711365 -0.02612872
000060 21 cb a6 be 2d 3a 05 bf 13 76 80 be 92 41 d2 3e
       -0.3257685 -0.52041894 -0.25090083 0.4106565
000070 76 33 21 bf 5c 28 2b 3f 7a 4d 6e 3d c0 34 25 3e
       -0.6296915 0.6685846 0.058179356 0.16133404
000080 ee 54 63 3e b7 32 ec be 12 0a 7f bf b2 d8 fb 3e
       0.22200367 -0.46132442 -0.9962474 0.49188763
000090 f1 76 d0 3e 06 c2 37 3e d1 13 0a be 41 3b 54 3f
       0.40715745 0.17945108 -0.13484122 0.82902914
0000a0 4c 18 a4 be 79 92 9c be ea de 35 bf be ab 59 3e
       -0.32049787 -0.305805 -0.71043265 0.2125692
0000b0 0a a7 25 bf 36 78 15 bf 58 f7 30 3e e0 33 16 bf
       -0.64708006 -0.5838655 0.17281854 -0.58672905
0000c0 a9 7e e1 be 7e 77 62 be 5f 2c be bd ad 4d 4d bf
       -0.44041947 -0.22115895 -0.09285807 -0.8019665
0000d0 a1 ed 94 be 0e c1 28 3f cb 70 7c be 03 75 71 3e
       -0.29087546 0.6591958 -0.24652402 0.23579793
0000e0 9c 81 c6 3c 05 0e 97 3f 6a 07 fa bd 06 ae 07 3f
       0.024231724 1.1801153 -0.12208445 0.52999914
0000f0 be ef 48 3f 00 b9 a2 3b 9a d0 40 3f bb 40 cb 3e
       0.7849082 0.0049659014 0.753183 0.39697823
000100 a2 98 eb be 04 16 46 bf 96 87 f3 bd ba b5 9a 3e
       -0.46014887 -0.77377343 -0.11891095 0.3021677
000110 31 09 04 3d f7 8a 85 bd d5 ad 05 bf 77 b1 ec 3d
       0.032235328 -0.06520646 -0.5221837 0.11557286
000120 ed 76 29 bf 9b 77 9e be ad 48 08 bf 47 90 05 3d
       -0.6619709 -0.30950627 -0.53235894 0.032608297
000130 41 f3 0e bf c5 86 fe bd 35 15 ac be 11 70 3d 3f
       -0.55839926 -0.12428049 -0.3360993 0.73999125
000140 9f be 48 bd 3e c4 f5 bd 6d 2d 31 bc 17 6e 3a bd
       -0.049009915 -0.12000321 -0.010814053 -0.045515146
000150 74 4b 63 3b 2b 02 02 3f 0f a5 0f 3f 65 b4 6c bd
       0.0034682425 0.5078456 0.56111234 -0.057789225
000160 bf 73 f1 be cd db 0b be 2a 09 7e be 44 97 1a bf
       -0.4715862 -0.13658066 -0.24808183 -0.60387063
000170 95 d6 9b be c4 a1 89 3d 39 c7 fb bd df da 0c 3f
       -0.3043715 0.067203075 -0.12293858 0.5502147
000180 3a df c4 bd 69 76 a2 bd e9 db 5f be e7 a5 2d 3e
       -0.096128896 -0.07932741 -0.21861233 0.16957818
000190 58 3c e8 bd e9 6f 09 bf c5 9b b0 3e b7 d2 03 bf
       -0.11339635 -0.53686386 0.34493843 -0.514934
0001a0 31 25 fe 3d be 8f a9 be 25 86 2c 3f 26 a3 8d be
       0.124094374 -0.3311748 0.6739219 -0.27663535
0001b0 e4 5d 42 be 4c 6f 7b be 98 f1 2f 3e 0c 9a 09 bc
       -0.18981129 -0.24554175 0.17182004 -0.008398544
0001c0 50 96 b8 bc d9 9f 9b 3e da 3e 45 3e ab dc 18 3f
       -0.022532612 0.30395392 0.19262257 0.5971171
0001d0 13 70 ec be 8f 20 37 3e 2a 25 cf 3e 4f e0 91 bd
       -0.46179256 0.17883514 0.4045804 -0.071228616
0001e0 dd 12 09 bf af 7b 2f bf a7 cf d4 3d 04 88 28 3f
       -0.5354441 -0.685481 0.10391169 0.65832543
0001f0 39 b4 01 3d 52 ad 32 be db e5 ef 3d e8 3a 1e be
       0.031666014 -0.17448929 0.11713763 -0.15452158
000200 de 8f 2d 3d 4d c2 a8 be e3 a4 0e 3f 43 71 c1 be
       0.04237353 -0.3296074 0.5572035 -0.37781724
000210 bf 96 67 bf d1 55 3c 3e 0d 69 1a bf 42 ab 51 be
       -0.90464395 0.18392111 -0.60316545 -0.20475486
000220 42 33 97 be d0 f1 82 3e df d5 8a be a4 00 99 3e
       -0.29531294 0.25575113 -0.27116296 0.298833
000230 0d 93 07 bd b5 df fe bd ed cd 4d bf 86 0d 8f 3e
       -0.033099223 -0.124450125 -0.8039234 0.27940005
000240 9a 1b 9c 3e 5c 19 c6 3e ca bd e7 3d d1 83 e5 3d
       0.30489808 0.38691223 0.11315496 0.112067826
000250 cd ec 11 be a9 fb 46 3e 52 d0 96 3e e5 56 97 3e
       -0.14250489 0.19431938 0.2945581 0.29558483
000260 89 34 af be b2 e8 7c 3e 9d f2 20 bf 21 5d 06 bf
       -0.3421977 0.24698141 -0.628702 -0.52485853
000270 da bd de 3d 6a e0 c1 be 06 4a c0 3e 1e ba cc be
       0.10876055 -0.37866527 0.37556475 -0.39985746
000280 11 38 ce 3e 9a 42 94 be 09 31 42 3e f7 75 09 bf
       0.4027715 -0.28957063 0.18964018 -0.53695625
000290 bb d0 89 be b9 06 f3 be b6 1b 21 bf 44 a3 2b 3f
       -0.2691706 -0.47466066 -0.6293291 0.67046
0002a0 b7 86 d1 3e c1 39 08 3e cb 02 93 be a9 b7 5a 3e
       0.40923092 0.13303281 -0.28713068 0.21359123
0002b0 62 42 18 3e b1 3c 94 be a6 5c bb 3e 05 4f c2 3e
       0.14869073 -0.28952554 0.36594123 0.37950912
0002c0 e6 9e 69 be fe a1 49 3f 76 0d 2f 3e dc e0 82 3e
       -0.22814521 0.78762805 0.17094979 0.2556218
0002d0 fe 8c ad 3d f9 eb a6 be f9 7f d4 be 40 c4 f4 3e
       0.08474158 -0.32601908 -0.41503885 0.47805977
0002e0 2b 94 8e be 43 f1 04 3e fa 85 87 3e 00 b9 2d bf
       -0.27847418 0.12982659 0.26469404 -0.6786041
0002f0 e3 56 4a 3f c6 a1 34 3d 18 d8 b4 be 7d d1 6c 3e
       0.7903883 0.04409959 -0.35321116 0.23126788
000300 fa e7 f2 be e5 c0 3c 3f f5 98 2f 3e ca 2f 93 be
       -0.4744261 0.73731834 0.17148192 -0.28747398
000310 ed 85 22 bf 04 69 1a bc 9c a7 b9 3e 7d 0d ee be
       -0.63485605 -0.009424452 0.36260688 -0.46494666
000320 b4 71 70 be 5b 4a ae 3e 12 2c c7 3e 5b 41 09 be
       -0.23480874 0.34041104 0.3890081 -0.13403837
000330 5e d6 75 be 61 ac 59 3e ea fe c9 3d 12 27 5f bc
       -0.24007556 0.21257164 0.09863074 -0.013620155
000340 92 0b 5a 3c 92 21 7a 3f f9 71 54 3f f8 9c 6a be
       0.013308423 0.97707474 0.8298641 -0.22911441
000350 20 ab 0e bf d8 7b 3f 3e f9 ae 8f be 57 66 d4 be
       -0.55729866 0.18699586 -0.2806318 -0.4148433
000360 74 d2 a3 be d9 32 a9 be ba 1a a0 be 9c 0e 91 3e
       -0.319965 -0.33046606 -0.3127039 0.2833146
000370 a2 b5 5a bd 10 36 4a bf 2b cd 8b bd 81 6b 40 bf
       -0.053395875 -0.7898874 -0.06826242 -0.7516404
000380 55 e8 31 3e f1 51 00 bf 06 75 42 bf 88 e6 d9 be
       0.17373784 -0.5012503 -0.75959814 -0.42558694
000390 a9 12 f8 be 6d 4d 91 be 8d 5e 16 3f 81 ac d1 bd
       -0.48451737 -0.28379384 0.58738023 -0.10237981
0003a0 62 22 0d 3e dc 57 ee be 8e 3e 14 3f eb 0c 9c be
       0.13782647 -0.46551406 0.5790795 -0.30478606
0003b0 c8 b1 a1 bd 60 23 28 bf ff 82 1e 3f ce 1b d4 3d
       -0.07895237 -0.6567898 0.61918634 0.10356866
0003c0 ac 44 9d bf 6d fd b8 3e ea 8e a4 be 97 1f c3 3e
       -1.2286582 0.3613085 -0.32140285 0.3811004
0003d0 31 8f 2e 3e 7f 1a f5 3e fb e4 da bd 34 6e a6 be
       0.1704681 0.47871777 -0.10688206 -0.32505953
0003e0 6a df d6 be c8 ec e9 3e 68 b3 40 3e bd a9 89 be
       -0.41967326 0.45688462 0.18818438 -0.26887313
0003f0 89 d2 03 bf df 2c 2d 3e 8c 6f d9 3d 7c d2 ec 3e
       -0.51493126 0.16911648 0.10616979 0.46254337

weight f4 [8]
000000 c1 6d c5 3f 6b 36 9f 3f f3 55 88 3f bc bc b6 3f
       1.5424119 1.2438482 1.065123 1.4276347
000010 80 dc ac 3f ab 7e cc 3f bc ad a3 3f 43 bc d4 3f
       1.3504791 1.5976156 1.2787395 1.6619953

bias f4 [8]
000000 b9 b1 60 bf ac 24 90 bf 9d e6 b2 be 9b d3 80 bf
       -0.87771183 -1.1261191 -0.3494157 -1.0064577
000010 42 93 df be c5 df 9c bf 06 ad 44 bf 12 1a 66 bf
       -0.43667036 -1.2255789 -0.7682651 -0.8988353

running_mean f4 [8]
000000 3a 99 b9 bf 0b 16 20 c0 8a 34 05 3f 02 fc ab bf
       -1.4499886 -2.5013454 0.52033293 -1.3436282
000010 9f 1a 50 c0 fa 8c 18 c0 49 11 83 bf 7a a9 4b c0
       -3.2516248 -2.3836045 -1.023965 -3.182219

running_var f4 [8]
000000 4a 13 08 41 56 b5 03 41 f8 aa c0 40 96 94 cb 40
       8.504709 8.231771 6.02087 6.361888
000010 bc 86 3f 41 eb ab e4 40 f9 cd e5 40 b9 c8 01 41
       11.970394 7.145986 7.181393 8.111505

weight f4 [16, 8, 3, 3]
000000 12 21 e8 bd a8 ca 12 3f e3 0c b2 bc a3 46 30 bf
       -0.11334433 0.5734048 -0.02173466 -0.68857783
000010 ac 01 9d bd 9f 3c bd 3e 7e 89 96 be 7c 6e 55 be
       -0.076663345 0.36960313 -0.29401773 -0.20842928
000020 8f a0 37 be 79 76 cf be b2 09 3a 3c 5c 22 c3 bd
       -0.17932342 -0.40520075 0.011354851 -0.09528038
000030 43 3e 92 3e 2c e5 81 3c 92 16 65 be 36 48 02 bd
       0.28563127 0.015856348 -0.22371891 -0.031807147
000040 ac 96 df bc 28 cc 90 bd ab b1 53 3d d1 aa cd 3d
       -0.027293526 -0.0707019 0.05168311 0.10042346
000050 0f 4e f6 bd 80 12 91 bd 18 e6 6b 3e ce 13 ce 3b
       -0.12026607 -0.07083607 0.23036993 0.006288982
000060 08 8a 90 be fc 42 67 bd 24 d2 68 be 39 08 23 3e
       -0.2823031 -0.056460366 -0.22736412 0.15921105
000070 73 17 14 be b6 e9 fd bd 17 ca ae 3c 5b f3 08 3e
       -0.1446207 -0.123980924 0.021336598 0.13374083
000080 a6 b0 ba bd fc ae 11 3e 11 d1 61 be 44 20 cc 3d
       -0.09115724 0.14226907 -0.22052409 0.09967092
000090 db 4c d7 bd 85 c9 9d 3e 33 68 26 be 79 f4 33 bf
       -0.10512706 0.3081781 -0.16250686 -0.7029491
0000a0 de 98 04 bf da 78 47 be f3 d1 b9 bd e1 a8 e0 be
       -0.51795757 -0.19479695 -0.09073248 -0.43878844
0000b0 90 c2 f1 be 9a 4a 15 3e d2 54 15 bf 4c 69 8c bd
       -0.47218752 0.1457924 -0.5833255 -0.06856021
0000c0 58 27 39 bf 8a b3 81 3e f5 8b 45 3d 3c 30 09 3e
       -0.7232566 0.2533229 0.048229177 0.13397306
0000d0 80 d8 be be ea 37 44 3d a6 dd 79 be 6f bb 82 3e
       -0.3727455 0.047904886 -0.24400958 0.25533625
0000e0 75 83 62 be 9d 47 82 be 30 f8 98 3d c8 9d f5 3d
       -0.2212046 -0.25445262 0.07469213 0.11992985
0000f0 eb 3a b7 bd 8b 30 c7 be 84 69 3b be bf 56 04 bf
       -0.089467846 -0.38904223 -0.1830197 -0.51694864
000100 ef b1 72 3e 1f 42 26 bd ab ed 05 3e 95 34 92 be
       0.23700689 -0.0405904 0.13078944 -0.28555742
000110 65 a6 0d 3e 2c 9f 1b 3e b4 37 e9 bd c0 8d 33 bf
       0.13833006 0.15197438 -0.11387578 -0.7013817
000120 4f ff 94 be 8b ff 5d 3e 23 1d ba bd 2c 52 f9 be
       -0.29101035 0.21679513 -0.09087589 -0.48695505
000130 df b6 e8 bd 0f d9 34 bb 3a 0b 81 3e 17 e0 b6 3e
       -0.11363005 -0.0027595197 0.25203878 0.35717842
000140 34 90 54 bf 82 43 b4 be 7a 61 e2 bc a1 bb 82 3d
       -0.83032537 -0.35207754 -0.027634371 0.063834436
000150 b2 c9 0e 3f a8 62 f5 be 74 31 60 3e 43 2d 55 be
       0.5577651 -0.4792683 0.21893865 -0.20818047
000160 5c 0b 32 3e 20 ab c1 3b 81 6d 6d be 77 d5 bb be
       0.17387146 0.0059102923 -0.23186304 -0.36686298
000170 3d af de 3d 03 df 68 3c c1 41 bd 3e 67 6f 14 3e
       0.10873268 0.014213326 0.3696423 0.14495622
000180 48 a6 0b be 84 fe 0c bf a1 b5 b0 3e cc dc ce 3d
       -0.1363765 -0.5507586 0.34513572 0.101007074
000190 05 50 c3 be 01 d4 86 be 6e fa 9f 3e ad 17 6d 3e
       -0.38146988 -0.2633362 0.3124575 0.23153563
0001a0 96 f7 cf 3e a7 1d 9d 3d d6 09 80 3e b6 72 75 3e
       0.4061858 0.07671671 0.25007504 0.2396954
0001b0 29 03 13 bf 15 bd 47 3f 83 71 0c 3f 83 b1 4b be
       -0.57426697 0.7802289 0.54860705 -0.19891934
0001c0 15 f8 1f 3e 33 ff 0a 3f 29 94 b7 be c1 7a f1 be
       0.1562198 0.54295653 -0.35855225 -0.47163966
0001d0 01 da 17 bf 82 a8 28 bf ec e6 08 be ef 1f bc bd
       -0.5931702 -0.6588212 -0.1336934 -0.09185778
0001e0 49 26 72 bd 33 cb 1b 3f 05 89 1f be 6f 17 2c bc
       -0.059118543 0.6085693 -0.15579613 -0.010503634
0001f0 69 00 36 3d 06 2f 63 3e 2f 53 bf 3e 09 d1 b4 be
       0.044433985 0.22185907 0.37368152 -0.3531573
000200 9d 2b 06 3f e3 d8 1d 3f b0 07 86 3e 01 3e 9e 3e
       0.524103 0.6165907 0.2617774 0.3090668
000210 d1 b1 97 3c fa 61 9d be 08 1d 63 be 9d 18 91 be
       0.018517407 -0.30738813 -0.22179043 -0.2833909
000220 ac 76 a5 3d 28 a3 af bd f5 32 3a bd 18 4c e9 be
       0.080792755 -0.085760415 -0.045458753 -0.45565867
000230 4a d8 2a 3e 0f f0 d9 3c e4 9f bd 3e 67 10 ea bd
       0.1668407 0.026603727 0.3703605 -0.1142891
000240 54 16 f2 be ee 78 48 3c d4 b9 dd 3e f9 6d bf 3e
       -0.4728266 0.012235863 0.43305838 0.3738859
000250 a5 cd 42 3f d8 bf 99 be b0 88 a7 be 88 fc 5f bf
       0.7609504 -0.30029178 -0.32721472 -0.8749471
000260 dd f7 68 be 12 02 8f be 6b 8d c6 3d 11 58 72 be
       -0.22750802 -0.27931267 0.09694942 -0.23666407
000270 6b 31 76 3e a4 00 84 be 8b af fe 3d 08 94 2f bd
       0.24042289 -0.2578174 0.12435826 -0.042865783
000280 05 28 6b be 03 92 bf 3e 0c d2 09 bf 72 5c c0 bd
       -0.22964485 0.37416086 -0.5383613 -0.093926325
000290 c1 64 c6 bd 65 f4 94 be d5 0b 40 be 3f 68 b1 3e
       -0.09687186 -0.29092708 -0.18754514 0.34649846
0002a0 a2 3a 6b be 58 58 b2 3c 43 4c 34 bd e2 3b b6 3e
       -0.22971585 0.021770641 -0.04401804 0.35592562
0002b0 0d 1d fd be 41 2f c3 be 76 ea 03 3e cf d7 34 3f
       -0.49436226 -0.3812199 0.12882408 0.706418
0002c0 ec 45 c1 be b6 54 8b 3e 8c 34 ff bc a6 76 6e be
       -0.3774866 0.27213067 -0.031152986 -0.23287448
0002d0 23 80 96 bd ae 90 26 bf 1b 61 3f 3e 70 4d 4d 3e
       -0.07348659 -0.65064514 0.18689387 0.20049071
0002e0 8c 95 9b be 3d fc 9c be e6 d7 86 38 5b ad 26 be
       -0.30387533 -0.30661193 6.429832e-05 -0.16277067
0002f0 33 72 b3 3d 25 3e 8d 3e d0 80 5e 3e 72 50 a3 be
       0.08762016 0.27586475 0.21728826 -0.31897312
000300 23 2a 2f 3e c6 60 64 3e 1b e0 d8 be d2 71 e5 bd
       0.17105918 0.22302541 -0.4235848 -0.1120335
000310 87 69 81 3e ad 1c 97 be cd 84 c0 be 7d 36 8b 3e
       0.25275823 -0.29514065 -0.3760132 0.2719001
000320 b6 e3 8f 3e 17 65 75 be 25 ea 8e 3e 3c 3d 81 be
       0.28103417 -0.23964344 0.27913013 -0.2524203
000330 71 16 7b be a4 0c 5b be c5 01 9c be 09 aa 71 3d
       -0.2452028 -0.21391541 -0.304701 0.05900005
000340 ef 76 bd bd 63 09 99 bd 21 f0 f4 3c 5c 74 c2 be
       -0.092512004 -0.074724935 0.029899659 -0.379794
000350 52 38 17 bc f7 31 02 3e e4 b9 44 3f 52 1e 03 3f
       -0.009229736 0.12714373 0.76846147 0.5121814
000360 47 7f 77 be 0f 51 d8 bd 31 5a 2a 3b 9b 3c 43 3c
       -0.24169646 -0.10562336 0.00259937 0.011916305
000370 c9 a8 f7 3e c9 26 dc be e5 ce 03 3d 26 da 2d 3c
       0.4837096 -0.4299834 0.032179732 0.010611093
000380 49 9e 1e 3e c0 f0 fc bb 9c f2 ef 3c c9 39 ef 3e
       0.15490068 -0.0077191293 0.02929049 0.46723774
000390 8e 93 cc 3e 83 10 2e 3e 47 54 c9 3c 79 af 9d 3c
       0.39956325 0.16998486 0.02457632 0.019248711
0003a0 45 3c 3a be 77 04 d0 3e 11 b5 42 be 9a 56 44 be
       -0.18187054 0.40628406 -0.19014384 -0.19173661
0003b0 58 d6 9f bd 6b 3a ae be 3f d1 2e 3e c7 8d 81 bc
       -0.07804555 -0.34028944 0.17072009 -0.015814675
0003c0 ac 92 1f be 8e 25 a6 be 8b 8c 8e bd 35 30 05 3f
       -0.15583295 -0.32450527 -0.069604 0.52026683
0003d0 cf b1 9a 3e cf 0f ab be a1 83 f0 be c1 1c e1 3d
       0.30213782 -0.33410498 -0.46975425 0.109918125
0003e0 e8 d5 40 be 23 5f c8 be a5 04 e7 3c 30 63 09 3d
       -0.18831599 -0.39135084 0.028200457 0.03354186
0003f0 2f ea d6 be a0 31 d9 be 5c 30 df 3d c3 84 cd bd
       -0.41975543 -0.42420673 0.10897896 -0.10035088

weight f4 [16]
000000 5e 92 f3 3f d7 8a 19 40 42 71 dd 3f 1b 1a e7 3f
       1.9029043 2.399099 1.7300189 1.8054842
000010 7e 0a f4 3f 6b 61 e5 3f 03 8d 01 40 54 46 07 40
       1.9065702 1.7920355 2.0242317 2.1136675
000020 06 02 2c 40 98 74 33 40 9d 57 16 40 6c ee 2d 40
       2.6876235 2.8039913 2.3490975 2.717677
000030 a9 df 27 40 68 ce 19 40 d2 ae 2d 40 ca fa 26 40
       2.6230261 2.403223 2.7137952 2.609057

bias f4 [16]
000000 05 73 f4 bd 52 8c c7 bc 5e bf 53 3e c4 17 54 be
       -0.11936001 -0.024358902 0.2067847 -0.20712191
000010 82 4b a2 be 84 eb fe bd 27 08 5e be 5c f1 a8 3d
       -0.31698233 -0.12447265 -0.21682797 0.08249161
000020 f2 47 11 3e 3d 31 76 3e aa 27 dd 3e 5a 82 9d 3e
       0.14187601 0.2404222 0.43194324 0.30763513
000030 d8 c5 a2 3e f2 91 9d 3d eb b7 a3 bd 9e b1 ec 3e
       0.31791568 0.076938525 -0.07994064 0.4622926

running_mean f4 [16]
000000 c2 02 19 c0 4f 0c 8c bd e5 a3 9f bf db 71 6c bf
       -2.3907933 -0.06838285 -1.2471892 -0.9236123
000010 80 74 45 c0 94 2c ef bf 20 47 f9 be cf 49 7f bf
       -3.0852356 -1.8685479 -0.48687077 -0.99722
000020 8f 65 95 3e 82 bd cf 3e f8 0a 07 3f b2 63 b6 bd
       0.29179046 0.4057427 0.5275111 -0.08905734
000030 58 45 22 bf 6e 79 21 bf 90 3f 48 3f 7d 13 a1 bf
       -0.6338706 -0.6307591 0.7822199 -1.2584072

running_var f4 [16]
000000 bc b9 1a 40 24 ac 93 40 db bf 18 40 62 67 17 40
       2.4175863 4.6147633 2.38671 2.365685
000010 b4 c7 df 3f 1e b2 df 3f f9 83 41 40 85 cd 57 40
       1.748282 1.7476232 3.02368 3.371919
000020 e3 53 de 3f 47 48 ec 3f 07 a1 42 3f b7 fa 8c 3f
       1.736935 1.8459557 0.7602696 1.1014012
000030 68 65 a4 3f 20 63 2d 3f 23 ad c8 3f 95 de 9a 3f
       1.2843447 0.6772938 1.5677837 1.2099177

weight f4 [64, 96]
000000 05 e5 3e bd 76 62 20 3d 73 df 03 bc ff 27 c0 bd
       -0.04660513 0.0391564 -0.00804888 -0.09382629
000010 4b 8d d1 bd c7 6c bf 3c bf 22 96 bd 6e 47 fa 3d
       -0.102320276 0.023367299 -0.07330846 0.122206554
000020 d9 31 90 3d c6 5d 0a 3d 08 87 8d 3d d1 5f c8 3b
       0.07040758 0.033780836 0.06910521 0.006114938
000030 57 aa b4 3d 3c 50 9a bc 05 55 d1 bc b7 38 e9 bd
       0.08821552 -0.018837087 -0.025553236 -0.113877706
000040 32 5e ff bc d3 d1 b0 bd 8c 2c cc bb 7d 0c 54 bd
       -0.031172846 -0.08633771 -0.0062308963 -0.051769722
000050 fe 84 19 3d 5a 4b ad bc e1 b9 13 bd 4e 36 01 bd
       0.037480347 -0.021154094 -0.03606594 -0.03154593
000060 6e 66 e0 3a 3a 7e c8 bd fb 85 47 3d 19 df 9a bb
       0.001712037 -0.09789701 0.048711758 -0.0047263023
000070 27 e6 53 3d 23 e6 8f bc 2b 1f 76 3c ed 64 03 bc
       0.051733162 -0.017565792 0.015022079 -0.008019668
000080 17 7b 0f bc 23 3b 13 3d c9 74 6d bc 5f 6d 88 3c
       -0.008757374 0.03594507 -0.014493176 0.016653715
000090 d6 04 81 3d e4 0c 4a 3c 1b 4a 35 bb ae 7c 3c 3c
       0.062997505 0.012332175 -0.0027662579 0.011504335
0000a0 d9 18 83 3d c7 20 08 bd aa e5 bb bd 35 13 8f bd
       0.06401224 -0.033234384 -0.09174664 -0.06986085
0000b0 36 95 95 bd 9c ae d0 3d 6a fe 21 3c e9 91 78 bd
       -0.0730385 0.10189554 0.009887317 -0.060686026
0000c0 e5 24 8e bd 49 25 be 3c 0d 0d 5e bd c6 e3 8f 3c
       -0.06940631 0.023211138 -0.054211665 0.017564666
0000d0 47 b8 36 bd b0 d8 8d 3d 55 1e 84 bc a2 05 1e bc
       -0.044609334 0.069260955 -0.016127745 -0.009644898
0000e0 0d c7 9f 3b 0e cb 99 3d e8 b7 83 bd 6e ba a9 bd
       0.0048760236 0.07509433 -0.06431562 -0.08287512
0000f0 7f 0c b2 3d a0 59 08 3d 2c b4 1f 3d 48 1e 30 3d
       0.0869379 0.033288598 0.038990185 0.04299763
000100 3e 3b 9a 3c ea 05 9f 3c 1b f1 ee 3c 8a 1f 8a 3c
       0.018827077 0.019412 0.029167702 0.016860742
000110 43 21 84 3c 96 82 bd bd 9c b6 a4 3d 3e a5 ca 3c
       0.016129142 -0.09253423 0.080426425 0.024736997
000120 ef 53 86 bd 8e a9 e5 bb 3f cc a1 3c 8e c2 cf bd
       -0.06558978 -0.007008738 0.019750712 -0.1014453
000130 10 aa a8 bd d8 da 23 bd 41 51 a0 bd bb fc 7f 3d
       -0.08235562 -0.040003628 -0.07827998 0.062496882
000140 80 c9 b1 bd 81 5c 79 bc 69 ff fc 3b 6b 89 db bd
       -0.08681011 -0.015219809 0.007720877 -0.1071957
000150 9b 1f 44 bc 83 78 82 bc a5 d1 ad bd d9 4c 1d bd
       -0.011970426 -0.015926605 -0.08487252 -0.038403366
000160 58 9a 9e 3d 82 a3 46 3d 24 4a 53 3d f7 22 f2 bd
       0.077442825 0.048495777 0.051584378 -0.11823075
000170 b0 53 5d 3c 4b 32 9c bd 12 3b 87 bd 5d a7 55 bd
       0.013508722 -0.0762678 -0.06603064 -0.052161563
000180 bf 4a b2 bd 21 2e 83 bd c1 94 76 bd 44 56 8b bd
       -0.08705663 -0.06405283 -0.060200457 -0.06803563
000190 99 d0 da bd 8a 0d b8 bc c3 1c 21 bc 05 97 29 bc
       -0.10684318 -0.022467393 -0.0098335175 -0.010350947
0001a0 98 c8 0b 3b 3a ed b5 bc 45 64 5f bd 72 59 65 bd
       0.002132928 -0.022207845 -0.054538984 -0.055993505
0001b0 bc 40 8a bd 17 ed 3d 3d 14 16 6e bd 8b 83 00 be
       -0.06750628 0.046368685 -0.058126524 -0.1255018
0001c0 66 b8 61 3d 44 58 81 3d c1 8f 03 bd 49 f8 0f 3d
       0.055107497 0.063156635 -0.032119516 0.035148893
0001d0 03 08 9d bd f2 59 90 bd 75 5e 86 3d f1 01 91 3d
       -0.07667544 -0.07048406 0.06560985 0.070804484
0001e0 0f 30 5a bc e1 68 a9 3d b3 92 af 3c 04 a9 68 3d
       -0.013317122 0.08271957 0.021432256 0.05680181
0001f0 36 f9 b5 3d 86 a4 3a bd dc 17 32 bc f2 92 43 3d
       0.08885424 -0.045567058 -0.010869946 0.04774756
000200 a3 8c 0b 3d 8a 69 90 bd 80 f4 3f 3b 4f b8 94 3d
       0.03406967 -0.0705138 0.002929002 0.072617166
000210 77 a0 4b 3c a8 7a dc 3c 9b 91 75 3d 83 52 96 bc
       0.0124283945 0.026913956 0.059953313 -0.018349892
000220 00 5c 8b bc a7 c9 51 3c bb 1d 58 bc 9a c7 83 3c
       -0.017011642 0.012804425 -0.013190682 0.016086388
000230 6b 7a 08 be 79 a2 59 bd 88 fd 25 3c 46 93 a9 3b
       -0.13327949 -0.05313346 0.010131247 0.005175027
000240 e2 95 63 bd a1 2d 94 bd 51 30 49 3d d5 3e 19 3c
       -0.05556286 -0.072352655 0.049118344 0.009353359
000250 58 57 ac 3d 10 f1 ac bc 61 37 6d bd ec 6a 8b 3d
       0.08415097 -0.021111041 -0.05791414 0.06807503
000260 63 23 4b bd 12 49 80 bd 6e a3 2c 3c 30 bb c2 3d
       -0.049594294 -0.06263937 0.010537012 0.095083594
000270 23 e3 25 3b 32 55 0a bd 2e b3 6f 3c 0f 88 8b bb
       0.0025312386 -0.033772655 0.014630122 -0.004258163
000280 db f1 2f bc fb ce 1b bd 76 02 c1 3d 41 de e9 bd
       -0.010738815 -0.03803919 0.094242975 -0.11419345
000290 e4 b2 0d bd ef ec 9e 3d 14 c3 ed 3d d9 e4 d1 bc
       -0.03459443 0.07760035 0.11609474 -0.025621818
0002a0 da e1 ee bd 83 14 a8 3d 34 28 82 bb e5 07 c0 bd
       -0.116641715 0.08207037 -0.0039720777 -0.09376506
0002b0 58 59 14 3d f1 a9 83 3d 2f 2a d9 3d e3 2e b9 3c
       0.036218017 0.06428898 0.10603749 0.022605365
0002c0 c9 df 42 bd f9 84 31 bd 62 4c 92 3d 15 df 99 bd
       -0.0475767 -0.043339703 0.07143475 -0.07513253
0002d0 95 88 a8 bd df 12 21 bd 7c 5d c3 3d 7c 73 64 bd
       -0.08229176 -0.039324638 0.09539315 -0.055774197
0002e0 d4 d3 8c 3d 7d d9 8d 3d c6 31 02 3e 10 a0 fd bb
       0.068763405 0.06926248 0.127143 -0.007740028
0002f0 bc 12 ca 3d 0f 6a f7 bc f8 a1 a4 3d bb 69 07 3d
       0.098668545 -0.03020194 0.080387056 0.033059817
000300 80 6a 0a 3d a6 54 23 3d ec 58 96 3d ef 88 b4 bd
       0.033792973 0.03987565 0.07341179 -0.088151805
000310 3f 8f 3b bd 57 e0 7c 3d cb 99 8e 3d 9b 19 46 bd
       -0.045790907 0.061737385 0.069629274 -0.048364263
000320 dd bb ba bd 3f ee 61 bd 2d b9 a0 3d 10 d5 f7 bc
       -0.09117863 -0.05515885 0.078478195 -0.030252963
000330 b7 35 ba bc 81 1c 3e bd da 8d 81 bd 05 83 7c 3d
       -0.022730691 -0.046413902 -0.06325884 0.061648387
000340 b2 8b 9e 3b f6 ff 8e bc 84 da 17 bd 92 8b 59 bd
       0.0048384303 -0.017456036 -0.037073627 -0.05311162
000350 55 d8 95 3d 93 d0 e0 3d 67 18 8b bd 86 82 ba 3d
       0.07316653 0.109772824 -0.06791764 0.091069266
000360 98 3b b4 3d 0f 6f 85 bb 26 9a 70 bd 02 17 c7 3d
       0.08800429 -0.004072077 -0.058740757 0.09721185
000370 26 62 b7 3d df e8 b0 bd 74 fe a2 3d 73 e6 a5 bb
       0.08954267 -0.08638167 0.07958689 -0.005062872
000380 a7 de d7 3c 4f cc be bd e3 ca 44 3d c1 a7 c9 bc
       0.026351286 -0.093163125 0.04804505 -0.024616124
000390 90 4c b2 bc 88 ee 57 bd 18 b5 dd 3d b9 09 c2 bd
       -0.021765023 -0.052717716 0.108255565 -0.09474511
0003a0 bb 44 28 bd a2 02 6c 3d 04 a3 0f bd c7 7c b0 bd
       -0.04108117 0.0576197 -0.035067573 -0.086175494
0003b0 aa 75 1d bd 2d 7b 1d 3d 06 e4 8f bd b5 61 54 3d
       -0.03844229 0.038447548 -0.07025914 0.051850993
0003c0 fc 5e c8 bd a6 e6 ca 3d 16 94 c0 3b 72 14 4e bd
       -0.09783742 0.09907274 0.005877028 -0.050312467
0003d0 07 ac cb 3d 22 6d ce 3c 84 c6 be bd d4 42 66 3d
       0.09944921 0.025198523 -0.093152076 0.056216076
0003e0 5e c4 83 bd e2 fd b9 bd f1 9b b0 bd b5 a0 ca bd
       -0.064339384 -0.090816274 -0.086234935 -0.09893934
0003f0 22 e6 2e bd 2a 84 c2 3d 3e ae 3b 3d cf fb 87 3d
       -0.04269994 0.094978645 0.045820467 0.066398256

bias f4 [64]
000000 10 d8 ad 3d 87 99 bd bd cf 90 72 3d 2a 52 43 bc
       0.08488476 -0.09257799 0.05922013 -0.011921445
000010 f5 2d 00 bd bf b7 e4 3c 28 e9 50 3d 97 9e 7e bd
       -0.031293828 0.027919648 0.051003605 -0.06216296
000020 ae 96 ee 3c 24 99 9f 3c c3 b5 3b 3e be a6 77 bc
       0.029124584 0.019482203 0.18331055 -0.015115438
000030 cf be ec 3c 43 4f a4 3d 47 68 4d 3e a7 4d a5 bd
       0.028899578 0.080229305 0.2005931 -0.08071452
000040 8a 04 0c 3e 0e 93 b3 3d 16 1b 06 3d dd 57 2f bd
       0.13673607 0.08768283 0.032740675 -0.042808402
000050 38 fb a3 3d 19 c0 57 3d fd 2e cb bd 85 2c 20 3e
       0.080069005 0.052673433 -0.09921072 0.15641983
000060 96 2a 0a 3e 0e 8e 35 3d 3e 1c 91 bc 18 7f 59 3e
       0.13492808 0.044324927 -0.017713662 0.21239889
000070 2d 8c e9 3d e5 ef b4 3d 21 73 a5 3d 2e 53 8b 3d
       0.114036895 0.08834819 0.080786 0.06802975
000080 f9 26 2c 3e d0 83 19 3d 2a 48 6f bd f9 5d 96 3c
       0.16811742 0.03747922 -0.05841843 0.018355357
000090 11 ff a0 3c 25 49 73 bd 12 8d c3 bd 09 88 31 3d
       0.019652875 -0.059395928 -0.095483914 0.043342624
0000a0 0b 78 88 bd 12 c4 8b 3d f6 52 bb 3d 2c bb 5e bd
       -0.066635214 0.06824507 0.09146683 -0.05437772
0000b0 30 d7 dc 3d b9 4b bd bc 38 1a da 3d 07 92 05 3e
       0.10783231 -0.023107396 0.10649532 0.13043986
0000c0 94 73 d8 3d b8 d1 2d 3d 79 a4 67 3d 99 ae c6 b9
       0.1056892 0.04243633 0.056553338 -0.00037895588
0000d0 f3 52 3b 3e 68 6a 7c 3d e2 6c ae 3d 5a 74 59 bc
       0.18293361 0.061624914 0.085168615 -0.013272369
0000e0 2e 16 33 3d a9 fd 86 3d 62 17 86 bd 04 7d c6 bc
       0.043722324 0.065913506 -0.06547429 -0.024229534
0000f0 95 89 84 bd b1 33 24 3d 1f 83 98 bc 22 79 fe bb
       -0.06471554 0.04008836 -0.01861721 -0.007765905

weight f4 [1, 64]
000000 e0 c8 3f be 01 5a 09 be 7a 1b 85 bd 83 23 3b 3e
       -0.18728971 -0.1341324 -0.06499381 0.18275265
000010 f8 19 95 3e 35 4f ac 3f c6 32 19 be d8 8f b5 3d
       0.29121375 1.3461672 -0.14960775 0.08865327
000020 ff 76 9c be 06 ed c0 3e cc 02 a4 bf f4 b2 5c bf
       -0.30559537 0.37680835 -1.2813354 -0.8621056
000030 12 ce c8 bd 41 39 c0 3c 4e a1 6e 3f 7b 25 94 3e
       -0.0980493 0.0234648 0.9321488 0.28934845
000040 23 ea 6e 3f 7d b9 58 bf 4e c0 ad be 60 f7 12 be
       0.93326014 -0.8465803 -0.3393578 -0.14352179
000050 57 98 47 3f 58 7c 55 be 32 48 83 bd b2 d7 70 3f
       0.7796683 -0.20848215 -0.064102545 0.94079125
000060 14 1f e7 3e 8d 84 a4 bf e4 6c 5d be 07 0b 90 3f
       0.45140898 -1.2852951 -0.2162357 1.1253365
000070 af 86 92 bf 04 0b 3a 3d 67 5f 95 be 9c 74 d6 3d
       -1.1447352 0.04542066 -0.2917435 0.1047146
000080 db 6d 56 bf 23 66 ed be 8c 0c d6 3e f5 11 0e 3f
       -0.83761376 -0.46366987 0.41806448 0.5549615
000090 f0 4a 40 3d fe 86 43 3f 57 d8 ce bd 93 e9 77 be
       0.046946466 0.76377857 -0.10099857 -0.24210195
0000a0 8f 6d 08 3e b5 f4 99 be f5 2c 97 be 78 98 ab 3e
       0.13323043 -0.3006951 -0.29526487 0.33514762
0000b0 37 b1 eb 3e 87 35 f2 3b 9a cc 5b 3f be ee 80 3f
       0.46033642 0.007391635 0.8585907 1.0072858
0000c0 f2 aa c1 3e b5 c6 15 be a8 39 09 bf fe d5 41 3f
       0.37825733 -0.14626582 -0.536036 0.7571715
0000d0 a5 a2 90 3f be c9 d9 3c be 0b 5a 3f 12 aa 15 3f
       1.1299635 0.026585456 0.8517417 0.5846263
0000e0 27 bf f6 3e a8 0f 2c 3f 71 b7 95 be cb a7 fa 3d
       0.48192713 0.6721139 -0.29241517 0.12239035
0000f0 be 28 32 be b8 10 8e bd 25 c9 68 3e 82 fc ea 3e
       -0.17398354 -0.069367826 0.2273298 0.45895773

weight f4 [64, 96]
000000 14 d5 c7 bd 0e b1 be be 53 cb 53 3e 81 3f 5c 3e
       -0.09757438 -0.37244457 0.20683031 0.215086
000010 b4 52 5c be 4a 93 e8 3d 18 cb 67 bd e0 78 32 bd
       -0.21515924 0.11356218 -0.05659017 -0.043572307
000020 25 1d 59 bc 5e 0c ab 3e 4d 23 e5 3d 7d 56 d7 ba
       -0.0132515775 0.33407873 0.11188374 -0.0016428974
000030 06 0a 18 3e 86 4d 2b 3d 61 a5 34 3c bf e4 07 3f
       0.14847574 0.04182198 0.0110257575 0.53083414
000040 c2 2e 8e 3e b9 69 b8 be 20 50 af bd 9f 42 95 be
       0.27770048 -0.3601816 -0.085602045 -0.2915239
000050 7b c4 c2 3e f5 0e 92 3e 78 98 8a bd b3 f1 74 3d
       0.38040528 0.28527036 -0.06767362 0.059800815
000060 c2 1c b1 3d 5d 82 63 3e b3 22 72 3d 6c fd 08 be
       0.08648063 0.22217698 0.059115123 -0.13377923
000070 1b 10 92 bd 3f 99 89 bd cb 2c dd bb 24 a3 90 3c
       -0.07131978 -0.067186825 -0.0067497245 0.017655917
000080 28 04 9b 3c b2 b6 f1 be e4 d9 b2 bd 2d a0 a6 bd
       0.01892288 -0.47209698 -0.087329656 -0.0813602
000090 fe e5 21 3d b4 fe 1c 3e 82 e3 fe bc a2 7d 0c 3d
       0.03952598 0.15331537 -0.031114344 0.0342995
0000a0 35 bd 13 3e e4 05 1d 3e b3 4b fd bd e1 ff 45 3e
       0.14427646 0.15334278 -0.12367954 0.19335891
0000b0 aa 2f 50 3e 9e fa 49 be 36 22 e2 3e 96 7b 71 be
       0.20330682 -0.19724509 0.44166726 -0.235823
0000c0 e7 d2 01 be 35 39 f7 3d 83 2f dd 3e 29 4e 21 be
       -0.12678109 0.12071458 0.4320031 -0.15752472
0000d0 84 b3 91 3d 30 f1 c0 be 1b fe 11 be 97 60 ce bc
       0.07114318 -0.3768401 -0.1425709 -0.025192542
0000e0 89 f7 7f be f7 b7 66 3e 1e 23 fe 3e 3d 9b 84 be
       -0.24996771 0.22531115 0.49636167 -0.25899687
0000f0 ad 42 1a be 1f 2d 40 3e 7b 38 1e bd b2 be 6d 3d
       -0.15064497 0.18767212 -0.038628083 0.05804319
000100 f6 c7 5b be 5f 58 8d be bb 4e a7 3b fa 7d bf 3c
       -0.21462998 -0.27606484 0.005105821 0.0233755
000110 1e a7 8f 3e 94 3d 9e 3c 92 5a b7 3b ef 6f c5 bc
       0.28057188 0.019316472 0.0055955136 -0.024101226
000120 9a 1a 94 3d 36 b2 72 3d 3d c8 b0 3e b4 8a 57 3d
       0.07231636 0.059251986 0.3452777 0.052622512
000130 63 ba 5a be 01 91 26 be ff 08 10 be fa e6 b6 bd
       -0.21360163 -0.16266252 -0.14065932 -0.08930774
000140 b0 ae 8d 3e 97 3a 2c 3e d5 d6 b5 3e 97 15 15 3e
       0.27672338 0.16819225 0.35515466 0.14559017
000150 c9 95 a3 be b5 4a 75 3e d1 f9 d0 3d 90 ec 0a be
       -0.31950215 0.2395428 0.10203899 -0.13566804
000160 a5 3e 5c be 99 92 b2 be 90 0d 26 be 93 7a ca 3c
       -0.21508272 -0.3487747 -0.16216111 0.024716651
000170 b9 67 1d be 02 67 67 3e 1b 07 78 be e7 3a 0a bc
       -0.15371598 0.22597888 -0.2422146 -0.008436895
000180 fb 54 87 bd e1 5c 71 bc 15 e3 31 3e f0 a0 85 3d
       -0.066080056 -0.014731617 0.17371781 0.06524837
000190 bb 19 2b 3d b7 03 1e 39 5d 4f 1a bc 88 33 90 3d
       0.041772585 0.00015069438 -0.009418336 0.07041079
0001a0 68 88 35 3c e0 ff ae 3d 6d ed 9f 3c 67 8a 76 bd
       0.011079885 0.08544898 0.019522393 -0.060190585
0001b0 53 10 e6 3c 19 da d6 3c 95 9b 4d 3d 6f 84 6a 3e
       0.028083956 0.026227044 0.050197203 0.22902082
0001c0 87 0f 5c bc 5b 46 74 bd 1b 83 d3 bd 47 d7 37 bc
       -0.013431436 -0.05963741 -0.10327741 -0.01122076
0001d0 2d e4 17 3e 76 78 88 3e 91 bc b0 3c dd 61 66 bc
       0.14833136 0.26654404 0.02157429 -0.014061418
0001e0 0c ec 8d bd 6f b3 8e 3d 36 6c 01 3c 29 a4 20 bc
       -0.06929788 0.06967818 0.007899335 -0.009804764
0001f0 33 cd 77 bd c7 26 52 bc 93 f7 0e bd b4 f9 b7 3d
       -0.060498428 -0.012826628 -0.034904074 0.08983174
000200 cb 7e 2c 3d f5 12 d2 bd 21 59 ba 3d dc 86 a4 bd
       0.042113107 -0.10257522 0.09099031 -0.08033535
000210 01 8a c7 3d ac af 1e 3e 80 f6 e3 bd 80 b3 b6 bd
       0.09743119 0.15496701 -0.111310005 -0.08920956
000220 c9 75 13 3e 90 67 c0 bc c2 e5 c1 bd 8f fc b8 bd
       0.144004 -0.023486882 -0.09467651 -0.09032547
000230 6a 05 37 3d 3c d4 7a bd bd d3 1f 3e 69 94 27 3d
       0.044682898 -0.06123756 0.15608115 0.04091302
000240 98 c1 99 3c 50 80 91 3d 36 5c c1 bc b1 56 00 3d
       0.01876907 0.07104552 -0.02360354 0.031332675
000250 9b 29 a3 3d d5 ac 85 3d 37 a6 f3 bd d3 f2 6c 3c
       0.0796692 0.06527106 -0.11896937 0.014462191
000260 47 55 26 be 26 68 b7 3d 0b 65 31 3e 70 99 e4 bc
       -0.16243468 0.089554116 0.17323701 -0.027905196
000270 de e7 83 bd b7 78 af bb 21 dc ad bc 2e 92 7b bc
       -0.064407095 -0.0053549665 -0.02122313 -0.015354676
000280 1e ed ae bd 11 61 cf 3d 0e cc f4 bd 45 f2 1a be
       -0.0854132 0.10125936 -0.11952983 -0.15131481
000290 56 9d ae 3b 7f 90 a5 bb 6b 50 f0 bb 8a 7f 38 3d
       0.0053288145 -0.0050526257 -0.0073338053 0.045043506
0002a0 97 0e 96 bd 40 77 8a 3d 2b 22 b2 3d df ea 17 3d
       -0.073270015 0.067610264 0.08697923 0.037089225
0002b0 9d 10 89 3d 07 28 b2 bd 7b 6c e2 bd 7d 25 25 bd
       0.06692622 -0.08699041 -0.11055847 -0.040318955
0002c0 81 a2 13 3d 0b 07 7d 3e 11 10 d5 3d 9d 78 38 3d
       0.036043648 0.24709718 0.10403455 0.0450369
0002d0 e4 6b 90 bc b6 9c a0 bd 08 b5 e1 bb 2b b4 e3 3b
       -0.017629571 -0.0784239 -0.0068880357 0.006948968
0002e0 b8 06 43 3c 1f 68 a7 bd 31 bc 84 bb 3d 14 e7 bd
       0.011903457 -0.081741564 -0.0040507545 -0.11283157
0002f0 a2 04 08 be 2c 6a 9b 3d a4 ac 1d be 51 4b 02 be
       -0.13283017 0.0758861 -0.15397888 -0.12724043
000300 ee e3 b3 bc 5c 26 76 3e 2f 98 75 3b e2 3c 90 3e
       -0.021959271 0.2403807 0.0037474742 0.2817145
000310 b3 4c a8 3e 7c b2 00 bd 12 b8 3d be 20 62 c9 3c
       0.32871017 -0.031420216 -0.18527249 0.024582922
000320 bc ab 7f bb 87 c6 00 ba b0 6b 08 3e 67 57 7d 3d
       -0.0039012274 -0.00049123954 0.1332233 0.06185093
000330 ba 03 f4 3c d6 52 c1 3c 2c 23 95 3d 73 57 ef 3d
       0.029786933 0.02359907 0.07282099 0.116866015
000340 1d 1d f7 3c 0f 60 34 3e c2 ab 8f be c2 37 10 be
       0.03016525 0.17614768 -0.28060728 -0.1408377
000350 08 c3 5a 3e 3c cb 90 3e 9e 71 04 be f2 7a 5f 3e
       0.21363461 0.28280056 -0.12933967 0.21824244
000360 72 6f 0d be 07 c1 ca bd d7 09 8b 3d a0 8e 59 bd
       -0.13812044 -0.09900098 0.06788986 -0.053114533
000370 81 0b 1a 3e 09 a6 0e be 48 2e dd 3c 9f 42 6a 3d
       0.15043451 -0.13930525 0.026999608 0.05719244
000380 1b 7f d8 3b 22 15 92 be 8f 1e 40 bd 20 a5 94 bd
       0.006606949 -0.28531748 -0.046904143 -0.072580576
000390 c2 13 2c 3d d2 30 dd bd bb 1c 92 bd 39 4e 2d be
       0.04201103 -0.10800327 -0.07134386 -0.16924371
0003a0 1f e8 bb 3e 38 bc d3 bd 74 b5 81 be b0 eb 38 be
       0.36700532 -0.10338634 -0.2533375 -0.18058658
0003b0 77 f0 2b be 5f 02 ba 3c 4f c5 50 3e 5b f1 e6 bd
       -0.16790949 0.022706209 0.20387767 -0.11276504
0003c0 15 3f 10 3e c6 3c 03 3e b3 58 e0 3c 99 24 01 3e
       0.14086564 0.12816152 0.027386045 0.12611617
0003d0 89 ce 5c 3e 27 ba c9 3c df 3c 55 be aa 8b b8 3d
       0.21563162 0.024624897 -0.20824002 0.09011014
0003e0 ab 27 e5 bd fd 28 ec bd 48 c6 53 3e 0e ca 1b 3e
       -0.11189207 -0.115312554 0.20681107 0.15213796
0003f0 69 4a 3c be ce dc fd bd 9f 8d 0e 3e a6 9c ae 3e
       -0.1838776 -0.12395631 0.13921212 0.34103888

bias f4 [64]
000000 b0 db 6b bc 54 20 22 bd 1f 6a 41 3d af 58 a1 3d
       -0.014395639 -0.03958161 0.047220346 0.07878243
000010 c9 73 fe bd 6b 54 13 3d c1 9d 9f bd a4 53 20 bd
       -0.12424428 0.03596918 -0.07793761 -0.039142266
000020 77 84 ff 3a de f9 60 bd 48 b8 41 bc d8 c7 a1 bd
       0.0019494434 -0.054925792 -0.011823721 -0.07899445
000030 f7 44 f8 bc e1 9c 4f bd 56 b4 25 3e fb 83 a2 bd
       -0.030306323 -0.05068672 0.16182074 -0.079353295
000040 8a 5d ca bd c2 2c 9b 3d 56 d1 43 bd b6 dc 4d 3c
       -0.098811224 0.07576896 -0.04780706 0.012564829
000050 5d 4a 0d 3e cd 04 9d bd 90 96 99 bd 68 09 d7 3c
       0.13797899 -0.07666931 -0.07499421 0.026249602
000060 69 22 d6 bd 5f 29 93 3c 10 18 25 bd fe 2a 2c bb
       -0.10455782 0.017964063 -0.04030615 -0.0026270743
000070 b6 50 17 3e df ac 7b 3d 1e b9 99 3c 2b 8b 43 bd
       0.14776883 0.06144416 0.018765029 -0.047740143
000080 82 a2 e4 3c 26 fa 10 bc 6a 6a 1b 3d 7b 7b 67 3d
       0.027909521 -0.008848703 0.03794328 0.056514245
000090 9f 8d 02 3e 95 7c 37 bd 6d 55 c1 3c 1d 6a 18 bd
       0.12749337 -0.044796545 0.023600304 -0.037210573
0000a0 0b 93 8b bd b8 11 3c 3d c5 02 1a bd 35 24 7b bd
       -0.068151556 0.045915335 -0.037600297 -0.061313827
0000b0 6d 6a 09 bd 52 6c 0e 3e 5f a4 44 3d 17 2b ae bd
       -0.03354876 0.13908508 0.04800832 -0.085043125
0000c0 ff b1 4b 3e c5 65 d7 bb d0 71 ed bc 8f ea df 3d
       0.19892119 -0.006573411 -0.028984934 0.109334104
0000d0 b0 23 cb bc d8 bc ba bc a3 19 b1 3d 6a f5 91 bc
       -0.02479729 -0.022795126 0.08647468 -0.017817218
0000e0 f4 e2 0b 3d ad ec 0e bc fa 96 57 bd 50 29 fc bb
       0.034151986 -0.00872342 -0.052634217 -0.0076953545
0000f0 9c fc 96 bd b5 e5 49 3d 75 b5 84 3d ce 40 ad 3c
       -0.073724 0.04929133 0.06479923 0.021149065
